83-邹逊绩-南京/week1/model.pth (torch, 2459 bytes, 4 tensors)

embedding.weight f4 [20, 5]
00000000: 9ea7 e33f 3e77 c83e f0da ee3f 6320 aa3f
00000010: a108 f03f 6eb5 1d40 a3a4 0540 209a 933f
00000020: 9c03 143f e522 3fbf 1319 0dc0 be9d 3c3f
00000030: a4c5 e8bf 729c 2a3f 99b4 38c0 b752 1940
00000040: b6b6 b0be a285 69be 5994 ebbf 4952 1b3e
00000050: 77e1 1f40 0c74 663f 478a 9fbf 0e00 e7bf
00000060: 5c8a 3f3f 3adc 9b3f cf4c 963f 9e6a 233f
00000070: 83a3 00c0 1f95 4abf ed0c b83f 5a16 083f
00000080: 4bac 10bf 3430 ccbf cc8a e2bf 55f2 d03f
00000090: 4148 91be 4f1c 37bf aff0 f3bf 4dde 34bf
000000a0: 5628 4040 d2f6 ad3f b2e3 2dbe 412f 84bf
000000b0: 6474 3140 ccfb ff3f eddd 64bf 349e c6bf
000000c0: 31c5 c2bf 880a a93e 748f 1440 e533 b1be
000000d0: 4c12 73bf 25f3 dfbf 7f59 a43e 569f 97c0
000000e0: b028 83bf c18f 1440 dd3a 8b40 782e b03e
000000f0: a18f 0f40 09b8 933e f9ce 71bf 1574 e6bf
00000100: f113 683f aa8c 673f 9125 6e3f 9f71 8dbf
00000110: 56d9 01c0 16d1 2040 19f7 0540 9fe9 33ba
00000120: adb7 95bf 1f00 64bf 8d70 14c0 b1f2 0740
00000130: 2f6f 4f3f 743e 383e fb0b c6bf 61bb a43d
00000140: 93dc 47bf 2e6e 813f 9d74 33c0 4edd 3cbe
00000150: 01da 18c0 1e68 5abf 558d 0340 ae2f 59c0
00000160: 0c1e 9dbd 492d 76bf 64f6 bf3f 4016 b93f
00000170: a815 873d 0985 d9bf e7d6 513f b310 0c40
00000180: 51bb e33f 9983 9d3f 62d0 c9bf a2f2 09c0
1.7785528 0.39153475 1.8660564 1.3291134 1.8752633 2.4641986 2.0881736 1.153141
0.5781801 -0.7466262 -2.2046554 0.73678195 -1.8185315 0.66644967 -2.8860228 2.3956735
-0.34514397 -0.22804883 -1.8404647 0.15168108 2.4981363 0.90020823 -1.2464074 -1.8046892
0.74820495 1.2176583 1.174219 0.6383456 -2.00998 -0.7913379 1.4378945 0.53159106
-0.565129 -1.595221 -1.7698607 1.6323954 -0.28375438 -0.7152757 -1.9057826 -0.70651704
3.002462 1.3590949 -0.1698139 -1.0326921 2.772729 1.9998717 -0.8940113 -1.551703
-1.5216428 0.33015847 2.3212557 -0.34609905 -0.94949794 -1.7496077 0.3209953 -4.7382
-1.0246792 2.321274 4.3509355 0.34410453 2.2431414 0.28851345 -0.9445644 -1.8004175
0.9065543 0.9044901 0.9302607 -1.10503 -2.0288901 2.5127616 2.0932066 -0.00068631204
-1.1696678 -0.89062685 -2.3193696 2.1241877 0.8102903 0.17992574 -1.5472406 0.08043552
-0.78070945 1.0111749 -2.8039925 -0.18443796 -2.388306 -0.8531512 2.0555012 -3.3935351
-0.076717466 -0.9616285 1.4997067 1.4459915 0.065959275 -1.6993724 0.8196854 2.1885192
1.779154 1.2305785 -1.5766718 -2.1554341

layer.weight f4 [5, 5]
00000000: d4c7 f3bf 2bbf 8e3e 0a1c 36bf dead 333f
00000010: b4a5 2fbf 1143 e8bf 5dc6 e33e 76a6 3abf
00000020: 0eb8 963f f3b1 45bf bb1c dbbf fdb6 ad3e
00000030: 3ac7 25bf 04a2 443f 6b7d 2ebf 32d1 533f
00000040: 495a 1a3f b40b 8b3f e83b 44bf 94d0 1fbf
00000050: dc92 3d3f 005f ee3e 247d 3cbe 0a06 82be
00000060: 4017 4c3f
-1.9045358 0.27880225 -0.71136534 0.70187175 -0.6861222 -1.8145467 0.44487277 -0.7291025
1.1774919 -0.77224654 -1.7118143 0.3392867 -0.6475712 0.76809716 -0.6816012 0.8274108
0.60294014 1.0862947 -0.7665391 -0.6242764 0.74052215 0.46556854 -0.18407112 -0.25395232
0.79722977

layer.bias f4 [5]
00000000: 95fe 91bc 6ed0 e4bd e444 6cbd 5914 30bf
00000010: d982 51be
-0.01782159 -0.11172567 -0.057682887 -0.6878105 -0.2046007

classify.weight f4 [1, 5]
00000000: e9d3 9040 a473 8f40 ea9a 9340 8a8a 25c0
00000010: 2b3d 33c0
4.525868 4.4828663 4.6126604 -2.5865808 -2.8006084
