92高向中上海/week1/model.pth (torch, 2139 bytes, 4 tensors)

embedding.weight f4 [10, 4]
000000 9e 48 a1 3e cb 1b f8 3c 65 52 13 3f 1f c0 07 40
       0.31500715 0.03028669 0.575476 2.1211011
000010 c3 a6 f7 be ed f0 dd bd 8a 4c 61 3e 46 cc 55 3e
       -0.48369417 -0.108369686 0.22001854 0.20878705
000020 5f f5 6d be a8 a4 f6 bd 99 1d 90 be 42 7f 05 bd
       -0.23238133 -0.120431244 -0.2814758 -0.032592066
000030 d5 3b 37 be a5 1d 82 be b8 c5 21 bf 8d fd 0e 3f
       -0.17893918 -0.25413242 -0.6319232 0.5585564
000040 a0 d4 64 3e ff e3 37 be 77 0e fd be 86 ab 77 bf
       0.22346735 -0.17958067 -0.49425098 -0.967461
000050 f2 dc 31 bf e4 bc 0c be dd 38 02 3f 82 f3 8b be
       -0.6947776 -0.13743931 0.50868016 -0.2733422
000060 5b f9 3c bf 68 a1 d1 3d fd c2 b8 3e 9b 75 a1 be
       -0.73817986 0.10235864 0.36086264 -0.31535038
000070 a5 98 18 41 25 d1 15 41 a0 c0 f6 40 ff 74 ea 40
       9.537267 9.363561 7.711014 7.3267817
000080 40 0a 01 41 c3 00 ff 40 80 c9 1a 41 2a 50 13 41
       8.065002 7.968843 9.674194 9.207071
000090 c6 91 1c be dd 39 8a bd 4b a2 d2 be ec a5 6b 3d
       -0.15289983 -0.06749318 -0.41139445 0.057531282

layer.weight f4 [4, 4]
000000 fc 45 b0 3e d6 b9 ac bd 57 fd 9d 3e 78 86 5c 3e
       0.34428394 -0.08433883 0.30857345 0.21535671
000010 39 50 e2 c0 4e 2a d1 bf 5e db 92 c0 8f 80 5d c0
       -7.072293 -1.6341035 -4.589278 -3.4609716
000020 95 27 ae 3e c7 e4 16 3e 82 d7 2d 3e 75 43 9d 3d
       0.34014574 0.14735709 0.16976741 0.07678882
000030 df 68 f3 c0 06 f4 ca bf bf f8 9d c0 de 6b 65 c0
       -7.6065516 -1.585572 -4.9366145 -3.5847087

layer.bias f4 [4]
000000 25 49 a1 bf 2d de 04 41 2d 21 7c bf 1c 7d fb 40
       -1.2600447 8.304242 -0.9848812 7.859022

classify.weight f4 [1, 4]
000000 da d0 80 40 89 26 66 c0 ab 5b 95 40 c8 6c 67 c0
       4.0254946 -3.596102 4.66744 -3.6160145
